python_version/super_resolution.onnx (onnx, 249252 bytes, 10 tensors)

conv1.bias f4 [6]
0	0x3e9d946e	0.30777305
1	0xbc965222	-0.01834971
2	0x3ecddde8	0.40208364
3	0xbf0a4e62	-0.5402585
4	0xbeab2b6e	-0.33431572
5	0xbea011e2	-0.31263644

conv1.weight f4 [6, 3, 5, 5]
0	0xbcf26db8	-0.029593334
1	0x3e0676c8	0.13131249
2	0x3dfd7dba	0.12377496
3	0xbba98b8a	-0.005174105
4	0x3c5ec39e	0.013596443
5	0x3d8ae6ec	0.06782326
6	0x3e1a059d	0.15041204
7	0x3da6b35f	0.08139681
8	0xbd19fa95	-0.03759249
9	0xbd9457f2	-0.07243337
10	0x3df620f9	0.12018008
11	0x3e20a30c	0.15687197
12	0x3e46c377	0.19410501
13	0xbb22d6f0	-0.002484735
14	0xbdabe5b5	-0.083934225
15	0x3d97818c	0.07397756
16	0x3df28c82	0.11843206
17	0xb9d5865e	-0.00040726637
18	0xbd0d5b4b	-0.034510892
19	0xbb112a4a	-0.002215045
20	0xbcb698e5	-0.022289703
21	0xbca37ad5	-0.019956032
22	0x3de02511	0.1094457
23	0x3d1772d3	0.03697474
24	0x3de2ad28	0.11068183
25	0xbc0773c6	-0.008267349
26	0xbd7b5cd8	-0.06136784
27	0x3d2df1fe	0.04246711
28	0xbc98d9fe	-0.018658634
29	0xbe01b15a	-0.1266531
30	0x3d9cc57a	0.07654853
31	0x3d582c98	0.052776903
32	0x3c5e6eff	0.013576268
33	0x3d13c7e2	0.036079295
34	0xbe430827	-0.19046079
35	0x3c5b091b	0.01336887
36	0x3df0c603	0.11756518
37	0x3cbf5dd7	0.023360176
38	0xbdc87ecd	-0.0978981
39	0xbdac86ad	-0.08424125
40	0x3d13ba9a	0.03606663
41	0x3db0ef3c	0.0863938
42	0xbc033836	-0.008009007
43	0xbc390496	-0.011292597
44	0xbe2cfc7d	-0.16893192
45	0xbd96ca90	-0.073628545
46	0x3d294ee7	0.041335013
47	0xbdef697a	-0.1169004
48	0x3cb8da7a	0.022565115
49	0x3d842de2	0.06454064
50	0x3d94ede6	0.07271938
51	0x3e226141	0.15857412
52	0x3e2e5dbd	0.17027946
53	0x3e080888	0.13284504
54	0xbc3c208d	-0.01148237
55	0x3d27a589	0.04092935
56	0x3e777ada	0.24167958
57	0x3e3cfd73	0.18456058
58	0xbd324e86	-0.043531917
59	0xbdfda9e2	-0.12385918
60	0x3dd27cf1	0.10277737
61	0x3e4e44af	0.20143388
62	0x3d978e39	0.07400174
63	0xbd424a9e	-0.04743444
64	0xbe454655	-0.19265111
65	0x3dda98d9	0.106736846
66	0xbd225348	-0.039630204
67	0x3db0c617	0.08631533
68	0x3dde9e99	0.10870094
69	0xbd9ba714	-0.07600227
70	0x3d635a9a	0.055506326
71	0xbcfa7867	-0.03057499
72	0x3ddf34ca	0.108987406
73	0xbcf807d5	-0.030277172
74	0xbd8dcd64	-0.06923941
75	0x3ac0f9fb	0.0014722937
76	0xbef78d80	-0.48350143
77	0x3e7e11c4	0.24811465
78	0x3bafdce1	0.005366907
79	0xbe633d50	-0.22191358
80	0x3dc75d4f	0.09734594
81	0xbf2bba7a	-0.67081416
82	0x3dead40b	0.11466225
83	0x3e4b1ab5	0.19834407
84	0xbda21ad5	-0.07915274
85	0x3e7adfe5	0.24499471
86	0xbe955013	-0.29162654
87	0xbf1de4c2	-0.6167718
88	0xbd3100ae	-0.04321354
89	0x3ec834c7	0.39102766
90	0x3e833f25	0.25634113
91	0xbd0cc1c8	-0.03436449
92	0xbe33d3da	-0.17561284
93	0xbd429d87	-0.04751351
94	0xbe25f65e	-0.16207263
95	0xbe945a4f	-0.2897515
96	0x3d89a82d	0.0672153
97	0x3e91db92	0.2848783
98	0x3de20ce0	0.11037612
99	0xbeeef03c	-0.4666766
100	0x3daff019	0.08590717
101	0xbe9f896c	-0.31159532
102	0x3e8777e3	0.26458654
103	0x3e7fbe7d	0.2497501
104	0xbd98a0fa	-0.07452579
105	0x3e869ad7	0.26290008
106	0xbecb63d5	-0.39724603
107	0x3e8696b1	0.26286843
108	0x3e70d928	0.23520339
109	0xbd11db1b	-0.035609346
110	0x3f100a6c	0.562659
111	0xbe44314a	-0.19159427
112	0xbebe387a	-0.37152463
113	0x3e372ba9	0.17887749
114	0x3ec83977	0.39106342
115	0x3edf4fba	0.43615514
116	0x3cdd5ba6	0.02702124
117	0xbd328d6c	-0.0435919
118	0x3e6102b2	0.21973684
119	0x3da96b18	0.0827238
120	0xbd2bf5e2	-0.04198254
121	0x3dca23df	0.09870123
122	0x3eeee341	0.46657756
123	0x3e4dcff6	0.20098862
124	0xbe446126	-0.19177684
125	0xbc5c2474	-0.0134364255
126	0xbec143d6	-0.37747067
127	0x3e782119	0.24231376
128	0xbd27b3cc	-0.040942952
129	0xbe50daec	-0.20396012
130	0x3da0661f	0.07831978
131	0xbede1562	-0.4337569
132	0x3e58a2c6	0.21155843
133	0x3d6e80b6	0.058228217
134	0xbe578339	-0.21046151
135	0x3ea5b0db	0.32361493
136	0xbe70f96d	-0.23532648
137	0xbeddc1a8	-0.4331181
138	0xbd0a35f9	-0.03374288
139	0x3ebfc948	0.37458253
140	0x3dd5cd41	0.1043954
141	0x3e0d5d20	0.13805056
142	0xbe3242f0	-0.17408347
143	0x3e00e5d5	0.12587674
144	0xbe22a3e4	-0.15882832
145	0xbe6b3219	-0.2296833
146	0xbdd898a2	-0.105759874
147	0x3e5ae559	0.21376552
148	0x3d3941c1	0.045228723
149	0xbe9f9b7b	-0.3117331
150	0xbe991724	-0.29900467
151	0xbdfdd38d	-0.12393866
152	0xbdd83113	-0.10556235
153	0xbe71641a	-0.23573342
154	0xbe22eea6	-0.1591135
155	0xbe6c9bdd	-0.23106332
156	0xbe6e0ced	-0.23247118
157	0xbe9b5284	-0.30336392
158	0xbde7dd99	-0.11321563
159	0xbea1199d	-0.31464854
160	0xbe7a5748	-0.24447358
161	0xbeab4492	-0.33450752
162	0xbe5a5d6d	-0.21324702
163	0xbe1f9a9a	-0.1558632
164	0xbea51163	-0.32239828
165	0xbdacc48e	-0.08435927
166	0xbe5d9e42	-0.21642402
167	0xbe87b462	-0.2650481
168	0xbdaac290	-0.08337891
169	0xbdfe9b21	-0.12431932
170	0xbd777ea1	-0.060423497
171	0xbd8cc0e2	-0.06872727
172	0xbdd126c3	-0.10212471
173	0xbdea1223	-0.114292406
174	0xbe7cf8d9	-0.24704303
175	0x3dc0ad12	0.094080105
176	0xbd051a82	-0.032495983
177	0x3dee7ec4	0.116452724
178	0x3e08363b	0.13301937
179	0xbd6efede	-0.05834853
180	0xbd281b11	-0.041041438
181	0x3d6ac834	0.057319835
182	0xbc8af973	-0.01696465
183	0x3d718685	0.05896618
184	0x3d90e25b	0.07074424
185	0x3d6f6f88	0.058455974
186	0x3e22e289	0.15906729
187	0x3e0c4351	0.13697554
188	0x3dedd4af	0.11612832
189	0x3dbaf81b	0.091293536
190	0x3db8a70c	0.09016237
191	0x3e52fb96	0.20603785
192	0x3d5cb6e4	0.053885356
193	0x3db94244	0.09045842
194	0x3e1370e4	0.14398533
195	0xbdee8214	-0.11645904
196	0xbd75746d	-0.059925485
197	0xbe0dfb93	-0.13865499
198	0xbd3417df	-0.043968078
199	0xbe0f0b66	-0.13969192
200	0x3d63c6da	0.05560956
201	0x3e1fa7d2	0.15591362
202	0x3e748891	0.23880221
203	0x3e473f8d	0.19457836
204	0x3e8ce8e0	0.2752142
205	0xbd8e0aba	-0.0693564
206	0x3d3f137c	0.04664944
207	0x3e7440b1	0.23852803
208	0x3e6bd965	0.23032148
209	0x3eb00824	0.3438121
210	0x3e36611f	0.17810486
211	0x3e5e4a9f	0.21708153
212	0x3e98458d	0.29740563
213	0x3e63a295	0.22229989
214	0x3ec50b83	0.38485345
215	0x3d7b5df5	0.0613689
216	0x3e784905	0.24246605
217	0x3eabf6e5	0.33586803
218	0x3e9907e4	0.29888833
219	0x3e9f036a	0.31057292
220	0xbde43d80	-0.11144543
221	0xbdf5ec22	-0.120079294
222	0x3dbca9c8	0.09212071
223	0x3e0d69e9	0.13809933
224	0x3d49c2fb	0.049258213
225	0x3e64eff8	0.22357166
226	0x3ebe8fe7	0.37219164
227	0x3e879478	0.2648046
228	0x3e969dea	0.29417354
229	0x3e9493d8	0.29019046
230	0x3e52be92	0.2058051
231	0x3f152a01	0.5826722
232	0x3f2c552f	0.6731748
233	0x3f2eead2	0.6832706
234	0x3e5eee7d	0.21770664
235	0xbdd8ae6e	-0.10580145
236	0xbd56de91	-0.05245835
237	0xbc052211	-0.008125798
238	0xbdfceb80	-0.123496056
239	0xbe296157	-0.16541038
240	0xbe50edef	-0.20403264
241	0xbeeae172	-0.45875126
242	0xbee02734	-0.4377991
243	0xbe925e76	-0.28587693
244	0xbdb9b3e6	-0.09067516
245	0xbe881387	-0.26577398
246	0xbe8f2ade	-0.27962393
247	0xbe019c2a	-0.12657228
248	0xbe08329a	-0.13300553
249	0xbdf88974	-0.12135592
250	0xbea25be9	-0.31710747
251	0xbdcfb878	-0.101426065
252	0xbe5d682a	-0.21621767
253	0xbd3aeb06	-0.045634292
254	0xbd3c7d17	-0.046017732
255	0xbb516cb7	-0.0031955668

conv2.bias f4 [16]
0	0xbda3de8e	-0.08001433
1	0x3e6ac09f	0.22925042
2	0xbe9632fa	-0.29335767
3	0xbe704cdd	-0.23466821
4	0xbdf00afc	-0.11720845
5	0xbd9a010d	-0.07519732
6	0x3f4ac58a	0.7920767
7	0x3ece662e	0.40312332
8	0x3ee28c99	0.44247892
9	0xbe8f8456	-0.28030652
10	0x3d8a0031	0.06738318
11	0xbdc94620	-0.098278284
12	0x3f505992	0.81386673
13	0xbd3736cc	-0.044729993
14	0xbed728a7	-0.42023203
15	0xbd27426d	-0.040834833

conv2.weight f4 [16, 6, 5, 5]
0	0x3e381a9f	0.17978905
1	0x3dfbc61b	0.12293645
2	0x3db145c4	0.08655885
3	0x3d233c40	0.03985238
4	0xbd6d83eb	-0.057987135
5	0x3cb0cf99	0.021583365
6	0x3c4521a3	0.012031945
7	0x3dd9cde8	0.106349766
8	0xbd283285	-0.041063804
9	0xbe021f11	-0.12707163
10	0x3c8b864d	0.017031813
11	0x3e2c090d	0.16800328
12	0x3e0763f4	0.13221723
13	0xbd810e20	-0.06301522
14	0xbe1fb345	-0.1559573
15	0x3d9d90a3	0.07693603
16	0x3e0cc4ff	0.13747023
17	0x3d382b8c	0.044963405
18	0xbe00bb8f	-0.12571548
19	0xbdce05c7	-0.10059696
20	0x3d7dbe4b	0.061949056
21	0x3e15dbab	0.14634578
22	0xbd478048	-0.048706323
23	0xbe07da47	-0.1326686
24	0xbe3cf7b8	-0.18453872
25	0x3e05fb09	0.13084044
26	0x3d2792dd	0.040911544
27	0x3dd7c850	0.105362535
28	0x3d250f2c	0.040297672
29	0xbc4d6c17	-0.012537978
30	0xbd427f67	-0.04748478
31	0x3d228e45	0.03968646
32	0xbc44b91e	-0.012007026
33	0xbdadb8c7	-0.08482509
34	0xbd5907e7	-0.052986052
35	0xbe0f96fa	-0.14022437
36	0xbd60930d	-0.05482774
37	0xbe22b595	-0.1588958
38	0xbe3988f5	-0.18118651
39	0xbe04131a	-0.12897912
40	0xbe13cfc8	-0.14434731
41	0xbe467254	-0.1937955
42	0xbe0adad2	-0.13560036
43	0xbe0561da	-0.13025609
44	0xbd786543	-0.060643446
45	0xbcc30f22	-0.023810927
46	0xbdf1a377	-0.117987566
47	0xbde795c2	-0.11307861
48	0xbd930622	-0.07178904
49	0xbd6a3315	-0.057177622
50	0x3d548520	0.05188477
51	0x3ddfeabc	0.10933444
52	0x3db05a6d	0.08610997
53	0x3e435f71	0.19079377
54	0x3e45be47	0.19310866
55	0xbd502ef6	-0.050826035
56	0xbcba5161	-0.022743883
57	0x3c8301e1	0.015992107
58	0xbd6da088	-0.058014423
59	0x3dcbbdc4	0.09948304
60	0xbdf297b2	-0.1184534
61	0xbde8f6f9	-0.11375231
62	0xbcc90577	-0.024538739
63	0x3cc77cc2	0.024351481
64	0xbd2446fb	-0.040106755
65	0xbde12519	-0.10993404
66	0xbdc7af39	-0.09750218
67	0xbde10d3a	-0.10988851
68	0x3cefb7a6	0.029262375
69	0xbd2dbfed	-0.042419363
70	0xbdd6152c	-0.10453257
71	0xbdb0ba05	-0.086292304
72	0xbdb72fed	-0.08944688
73	0x3c4e1532	0.012578296
74	0x3cf2bb69	0.02963038
75	0x3e44edfc	0.19231409
76	0x3d48add4	0.0489939
77	0xbd8587a3	-0.06520011
78	0xbc9be319	-0.019029187
79	0xbd20eb09	-0.039286647
80	0x3e41ad1e	0.18913695
81	0x3cec7dbe	0.028868552
82	0xbd9d4b57	-0.076803856
83	0xbda4c313	-0.0804502
84	0xbdea1fd6	-0.114318535
85	0x3c37e53b	0.011224086
86	0xbd5c1cf3	-0.053738546
87	0xbcef5686	-0.029216062
88	0x3c429a8a	0.011877665
89	0xbc071bc8	-0.00824637
90	0xbde9b7e7	-0.1141203
91	0xbd65bb0d	-0.05608659
92	0x3a0f53dc	0.0005467513
93	0xb9e75f88	-0.0004413093
94	0x3da3e66a	0.08002932
95	0xbd950378	-0.07276052
96	0xbdabbb85	-0.08385376
97	0x3d65afab	0.056075733
98	0xbc4341fc	-0.011917587
99	0x3d4e0206	0.0502949
100	0x3e06ec20	0.13176012
101	0x3e0960ba	0.13415805
102	0x3e04af27	0.1295744
103	0x3d2dfdf1	0.042478506
104	0xbcfb81f1	-0.03070161
105	0x3da3d047	0.0799871
106	0x3e06a2b5	0.13148005
107	0x3d107874	0.035271123
108	0xbab1cbc2	-0.0013564753
109	0x3dac046c	0.08399281
110	0xbdab8432	-0.08374824
111	0x3c027648	0.007962771
112	0xbdafaf43	-0.085783504
113	0xbdbb7881	-0.09153844
114	0x3c4e4864	0.012590501
115	0xbe0348c2	-0.12820724
116	0xbd86ede1	-0.065883406
117	0xbe2bb612	-0.16768673
118	0xbe2d8338	-0.16944587
119	0xbdfe7e8f	-0.12426483
120	0x3d33fcb4	0.04394217
121	0xbe2a2ab9	-0.1661786
122	0xbe48d5e2	-0.1961284
123	0xbe3443b2	-0.17603949
124	0xbe0b04bc	-0.13576025
125	0xbd9f4527	-0.07776862
126	0x3b9917b7	0.0046720165
127	0x3d9b02ce	0.07568894
128	0x3dd7c285	0.105351485
129	0xbd4ed99b	-0.050500493
130	0xbd7f3b09	-0.06231216
131	0xbdc2a836	-0.0950474
132	0xbdbb12a8	-0.09134418
133	0xbca386f0	-0.019961804
134	0xbd91d5ff	-0.07120895
135	0x3de5fe5b	0.11230155
136	0x3d4fd74d	0.050742436
137	0x3be90804	0.0071115512
138	0xbd9c4175	-0.076296724
139	0xbd3d69db	-0.04624353
140	0x3e96c651	0.29448178
141	0xbcb64430	-0.022249311
142	0x3e019ad1	0.12656714
143	0x3dff2e3e	0.12459992
144	0x3d53fc07	0.051754024
145	0x3ef36e69	0.47545174
146	0xbacb4e7b	-0.001551106
147	0x3de5cdc4	0.11220887
148	0x3e0282a8	0.12745154
149	0x3df79e90	0.1209079
150	0x3df17f7d	0.117918946
151	0x3ce7adf2	0.028281186
152	0x3dd3bbfb	0.10338589
153	0x3e27113d	0.1631517
154	0x3e07350a	0.13203827
155	0x3d2c1d4e	0.042020135
156	0x3d1167c5	0.035499353
157	0xbc9f4756	-0.019443195
158	0x3dc70f00	0.09719658
159	0xbc3e60b6	-0.011619737
160	0x3d5b868f	0.053595122
161	0xbd6e5be4	-0.058193102
162	0x3dc2b1cf	0.095065705
163	0x3dbf5e34	0.0934414
164	0xbc9dee06	-0.019278537
165	0x3c19d7e8	0.009389855
166	0xbc8d8322	-0.017274443
167	0x3dceedfa	0.10103984
168	0xbd02975b	-0.031882625
169	0xbc2cf023	-0.0105553
170	0x3e1d7ca9	0.15379585
171	0xbd0fa782	-0.035071857
172	0x3dcf9f1b	0.10137769
173	0x3da91889	0.08256633
174	0xbd30df16	-0.0431815
175	0xbddc0c95	-0.10744587
176	0xbd79aa84	-0.060953632
177	0xbe24f60a	-0.16109481
178	0xbe28cc0d	-0.16484089
179	0xbe0d7719	-0.13814963
180	0xbe0c5df2	-0.13707712
181	0xbe5a4c7e	-0.21318242
182	0xbd862c82	-0.06551458
183	0xbe08048f	-0.13282989
184	0xbd2ac28c	-0.04168944
185	0x3bf54903	0.0074855103
186	0xbdccd52d	-0.100015976
187	0xbd2a2037	-0.04153463
188	0xbce1c3ba	-0.02755915
189	0xbce75f28	-0.028243616
190	0x3d3826e6	0.04495897
191	0x3d46c727	0.04852977
192	0xbd85aaa0	-0.06526685
193	0xbd287e1a	-0.041135885
194	0xbcf0257f	-0.029314755
195	0x3bc126ea	0.0058945315
196	0xbc8998d7	-0.016796513
197	0x3b4993ac	0.0030758185
198	0x3b9189ce	0.0044414764
199	0x3db27af3	0.08714857
200	0x3e149f1b	0.14513819
201	0xbd80c1b5	-0.06286947
202	0x3cc5e98c	0.024159215
203	0xbe0e4bd2	-0.1389611
204	0xbdc9253f	-0.09821557
205	0x3d7fe705	0.062476177
206	0x3c1c1835	0.009527256
207	0xbd6800c8	-0.05664137
208	0xbda1185d	-0.07865975
209	0xbcfd5080	-0.030922174
210	0x3e26435c	0.16236633
211	0xbc460383	-0.012085798
212	0xbe23489b	-0.15945666
213	0xbe608e00	-0.21929169
214	0xbddd037c	-0.1079168
215	0x3e795396	0.24348292
216	0xbcf8637f	-0.030320881
217	0xbe045070	-0.1292131
218	0xbe178cc2	-0.14799789
219	0xbdd1a56a	-0.10236628
220	0x3e87c5b2	0.26518017
221	0x3e08551b	0.13313715
222	0x3ca06eff	0.019584177
223	0xbdaf4f6e	-0.08560072
224	0xbd327bf4	-0.043575242
225	0xbcf36773	-0.029712414
226	0xbdd5881a	-0.1042635
227	0xbdbc8b74	-0.09206286
228	0xbe68509b	-0.22686999
229	0xbe0e4e6b	-0.13897102
230	0x3b96e959	0.004605454
231	0xbd991589	-0.07474811
232	0xbde5bd8f	-0.11217796
233	0xbd61b21f	-0.05510151
234	0xbd4a22d5	-0.049349625
235	0xbdde190b	-0.1084462
236	0xbc08323c	-0.008312758
237	0xbd60482c	-0.05475633
238	0xbdb3e45b	-0.0878379
239	0x3b048476	0.0020220554
240	0xbddee3f9	-0.10883326
241	0xbe222e9f	-0.15838097
242	0xbe3e4ec8	-0.1858474
243	0xbd3613b4	-0.044452384
244	0xbd1e5ea4	-0.038664475
245	0xbdfe46c4	-0.12415841
246	0xbe25bc21	-0.16185047
247	0xbe5f73e2	-0.2182155
248	0xbe42cdf7	-0.19023882
249	0xbe4a1502	-0.19734576
250	0xbe4d472a	-0.20046678
251	0xbd972138	-0.07379383
252	0xbd254065	-0.040344615
253	0xbcf869bb	-0.030323854
254	0xbd621be2	-0.055202372
255	0xbc951e58	-0.018202946

fc1.bias f4 [120]
0	0x3dcbafc1	0.09945632
1	0x3dd6e485	0.104928054
2	0x3ab3a5aa	0.0013705988
3	0xbd8b4bb3	-0.06801548
4	0xbcd50856	-0.026004951
5	0x3db8a99a	0.09016724
6	0x3cd721a0	0.02626115
7	0xbaac9e5f	-0.0013169757
8	0x3d374a7c	0.04474877
9	0xbd87db01	-0.066335686
10	0xbc1346e4	-0.00898907
11	0x3b962300	0.004581809
12	0xbdab8022	-0.08374049
13	0x3dae884f	0.085220926
14	0x3d70e3ea	0.058811106
15	0x3e256f5e	0.16155764
16	0x3cd921a7	0.026505305
17	0xbdacd639	-0.08439297
18	0xbd46bd85	-0.048520584
19	0xbb2fe818	-0.002684122
20	0xbc3a9982	-0.011389138
21	0x3d250dd8	0.040296406
22	0x3a4daf7d	0.0007846279
23	0x3e003dce	0.12523577
24	0x3ca6e370	0.020372123
25	0x3d384b14	0.044993475
26	0xbdb9663f	-0.09052705
27	0xbd3142a0	-0.04327643
28	0xbe14c371	-0.1452768
29	0x3d4112c1	0.047137026
30	0x3e34823b	0.17627804
31	0xbc81fe4e	-0.015868332
32	0xbd3e55c0	-0.046468496
33	0x3cb50abc	0.022099845
34	0x3d7f1e8f	0.062285002
35	0xbc931461	-0.017954053
36	0x3d6a6679	0.05722663
37	0x3d214564	0.039372817
38	0xbb50cb81	-0.003185958
39	0xbb7e057f	-0.00387606
40	0x3b9aed29	0.0047279787
41	0x3e117559	0.14204921
42	0xbcb66353	-0.022264158
43	0xbb4cce76	-0.003125099
44	0xbbbbbbeb	-0.0057291887
45	0x3d2ea8fd	0.04264163
46	0x3dc560b8	0.09637588
47	0x3cd4ab14	0.025960483
48	0x3d48e0b2	0.04904241
49	0xba0aba13	-0.00052920094
50	0xbcb975d9	-0.022639202
51	0x3c006024	0.007835422
52	0xbd8d4842	-0.06898548
53	0xbd7e034f	-0.062014874
54	0x3db2dbb0	0.08733308
55	0xbc18467e	-0.00929415
56	0xbd140689	-0.036139045
57	0x3d30c892	0.04316003
58	0xbddd77eb	-0.10813888
59	0xbd143d04	-0.036191
60	0x3d188269	0.037233744
61	0x3e105430	0.14094615
62	0xbd3cb58c	-0.046071574
63	0xbd135c25	-0.035976548
64	0x3ce5614d	0.028000498
65	0x3c2d832d	0.010590357
66	0x3df86f6a	0.121306255
67	0x3d44627c	0.047945485
68	0xbc1833eb	-0.009289722
69	0x3d9cf560	0.07663989
70	0x3b2a36a4	0.002597251
71	0x3decf33c	0.11569831
72	0x3d164e87	0.036695983
73	0x3cfaa706	0.030597221
74	0x3b9f440f	0.004860408
75	0x3da1ed2a	0.079065636
76	0x3decc52c	0.11561045
77	0x3cf4a1da	0.029862333
78	0xbc9ff05c	-0.019523792
79	0xbc4c9490	-0.012486592
80	0x3da5479e	0.080703005
81	0x3b26646b	0.0025389444
82	0xbc1e7c04	-0.009673122
83	0xbd4c8dc2	-0.04993988
84	0x3c13ccc3	0.009020987
85	0xbd3a975b	-0.0455545
86	0x3c542b31	0.012949751
87	0xbe2152ad	-0.15754195
88	0xbd6eb637	-0.058279242
89	0x3def01bf	0.11670255
90	0x3d3ded74	0.04636903
91	0x3d2ddf86	0.042449497
92	0x3dfdd662	0.12394406
93	0x3daa3438	0.08310741
94	0x3e106d56	0.14104208
95	0xbd0c3d35	-0.03423806
96	0x3e486155	0.19568379
97	0xbdb668fc	-0.08906743
98	0xbca1d599	-0.019755172
99	0xbd981e97	-0.074277095
100	0x3cc49e39	0.024001228
101	0x3d857b18	0.06517619
102	0xbdaa5dde	-0.08318685
103	0xbd61353c	-0.05498241
104	0x3d324ea1	0.043532018
105	0xbcbb4606	-0.022860538
106	0x3df3528b	0.11880978
107	0xbcc6b05f	-0.024254022
108	0x3c254cba	0.010089094
109	0x3cd97248	0.026543751
110	0x3d5e26fa	0.05423639
111	0x3dfef946	0.12449889
112	0x3d0207e4	0.031745806
113	0xbd16a3b9	-0.03677723
114	0x3d63a4d5	0.055577118
115	0xbd36cedc	-0.04463087
116	0x3d8485a6	0.06470804
117	0x3b91071e	0.0044258973
118	0xbcc1b8ee	-0.023647752
119	0xbd856157	-0.06512707

fc1.weight f4 [120, 400]
0	0x3db69893	0.0891582
1	0x3cd55f5e	0.026046451
2	0xbca610aa	-0.020271618
3	0xbd0e9bea	-0.03481666
4	0xbd15005a	-0.03637729
5	0x3d44c84e	0.048042588
6	0x3b921d6f	0.004459075
7	0xbd31a7f6	-0.04337307
8	0x3d180765	0.037116427
9	0x3bd83861	0.0065985178
10	0x3c722040	0.014778197
11	0x3cd186ab	0.02557691
12	0x3dcb9371	0.099402316
13	0x3d33b8b4	0.04387732
14	0x3ccadeb4	0.024764396
15	0xbc1acdcc	-0.00944848
16	0x3c2e3027	0.010631598
17	0xbcc23a72	-0.02370951
18	0x3cab9d00	0.020948887
19	0x3c5701e0	0.013123006
20	0xbc5c458a	-0.013444314
21	0xbd865889	-0.065598555
22	0x3caf0167	0.021362973
23	0x3d6a67c9	0.057227883
24	0xbd708d2d	-0.058728386
25	0x3dd7cc1f	0.1053698
26	0x3d2994a8	0.041401535
27	0x3c618c0b	0.013766299
28	0xbd6368d9	-0.055519912
29	0xbd81456d	-0.0631207
30	0x3d8e81b4	0.06958333
31	0xbd8f6989	-0.07002551
32	0xbc381831	-0.011236236
33	0x3c32e9bd	0.010919985
34	0x3cd29ee1	0.025710525
35	0x3dc84714	0.09779182
36	0xbd035f64	-0.032073393
37	0xbb5ef607	-0.0034021155
38	0x3c63a540	0.013894379
39	0x3c92b88c	0.017910264
40	0x3dab1c38	0.08354992
41	0xbc644630	-0.01393275
42	0xbce4a90e	-0.027912643
43	0xbc328732	-0.010896491
44	0x3d91c275	0.07117168
45	0x3dac5ecc	0.084165186
46	0x3b5e73dc	0.003394357
47	0x3d19084f	0.03736144
48	0x3d1fd0ee	0.03901761
49	0x3c4209b8	0.011843137
50	0xbb8280ac	-0.003982624
51	0xbcec85f9	-0.028872477
52	0xbc718589	-0.01474131
53	0xbd6f97d7	-0.058494415
54	0x3dd650b1	0.104646094
55	0xbd084443	-0.033268224
56	0x3bab237a	0.005222735
57	0x3d356776	0.04428812
58	0x3d787bb0	0.060664833
59	0x3dfc4da7	0.123194985
60	0x3d805b07	0.06267362
61	0xbd93f680	-0.072247505
62	0x3c8a3512	0.016871009
63	0x3bc3a0b4	0.005970085
64	0xbc05d498	-0.008168362
65	0x3d032054	0.032013252
66	0x3c84dcf7	0.016218645
67	0xbc6215fe	-0.013799189
68	0x3dc50c36	0.0962147
69	0xbc0a9fd8	-0.008460961
70	0xbb35537a	-0.0027668164
71	0x3ca5cda3	0.020239657
72	0x3d342fb4	0.043990806
73	0xbb91ecb4	-0.004453266
74	0xbd280d97	-0.041028585
75	0x3d96d649	0.073650904
76	0x3d5f7b64	0.054561034
77	0x3cd50cad	0.02600702
78	0x3d49eef6	0.049300157
79	0x3d5e512b	0.054276627
80	0xbc12d8fe	-0.008962868
81	0xbb804aa4	-0.003915148
82	0x3b1a6c43	0.0023563064
83	0x3c802c24	0.015646048
84	0xbd586b77	-0.05283686
85	0xbc63cf76	-0.013904443
86	0xbd7bd752	-0.061484642
87	0x3d7e1d41	0.062039617
88	0x3cea188a	0.028576154
89	0xbd0d19df	-0.0344485
90	0x3c6db335	0.014508058
91	0xbcb573e2	-0.022149984
92	0x3c8ce37d	0.017198319
93	0x3cb9c8cd	0.022678757
94	0x3d5703a6	0.052493714
95	0xbd3f44b0	-0.046696365
96	0x3cb074ea	0.021540124
97	0x3c3eb9f7	0.011641017
98	0x3d5ec390	0.05438572
99	0x3bdc9c58	0.006732505
100	0xbd41cd16	-0.047314726
101	0xbda50423	-0.0805743
102	0xbd8191e2	-0.06326653
103	0xbc458a3f	-0.012056886
104	0xbe0a0faf	-0.13482545
105	0xbb52b52c	-0.0032151444
106	0x3a277664	0.0006388186
107	0x3ca0d404	0.019632347
108	0xbb66d4a3	-0.0035221956
109	0xbc7b0b32	-0.015322493
110	0x3d00ead9	0.03147397
111	0xbc491a08	-0.012274273
112	0xbbef22c1	-0.007297844
113	0xbd92da71	-0.07170571
114	0xbd9c9239	-0.07645077
115	0xbd038d8b	-0.032117408
116	0xbd6f37da	-0.058402874
117	0xbd492c46	-0.049114488
118	0xbcfd7e7b	-0.0309441
119	0xbda2b183	-0.07944014
120	0xbcd8f15f	-0.026482282
121	0xbc250fac	-0.010074537
122	0xbbe7cb06	-0.007073763
123	0xbcda469f	-0.026645003
124	0xbcf58ac0	-0.029973388
125	0xba3ad175	-0.00071265484
126	0x3b29ca84	0.0025908062
127	0xbb7a5d14	-0.0038202452
128	0x3d4ade3a	0.049528338
129	0x3e12b51c	0.143269
130	0x3d04cd7d	0.03242253
131	0xbd241288	-0.040056735
132	0x3d5e7f4b	0.054320615
133	0xbc5dae35	-0.013530304
134	0xbccb468a	-0.02481391
135	0x3ce127dc	0.027484827
136	0x3d229583	0.039693367
137	0x3dae8ff0	0.08523548
138	0x3cc78da3	0.02435953
139	0x3d3e1f6a	0.046416678
140	0x3be71dbd	0.0070531056
141	0x3d1d43a6	0.038394593
142	0x3d4f4aa2	0.050608285
143	0x3d4fa0af	0.05069035
144	0x3d4c375a	0.049857475
145	0x3ce0e48b	0.027452728
146	0x3d87907e	0.066193566
147	0xba659e31	-0.0008759229
148	0x3bcbef87	0.0062236222
149	0x3c8688c1	0.016422631
150	0xbd6a1e31	-0.0571577
151	0xbd4197f3	-0.04726405
152	0xbd348d5d	-0.044080127
153	0xbda8ead4	-0.08247915
154	0xbd9e030f	-0.07715427
155	0x3d046398	0.032321543
156	0xbd6b4d9c	-0.05744706
157	0xbd5b0cba	-0.053478934
158	0xbc011960	-0.007879585
159	0xbd346d6a	-0.044049658
160	0x3cf0aacf	0.029378323
161	0xbcc5ca0a	-0.024144191
162	0xbc9528ae	-0.018207874
163	0xbc904e3d	-0.017615432
164	0xbc937762	-0.018001262
165	0x3d60ee5f	0.05491483
166	0xbc312e55	-0.010814269
167	0xbd3d155c	-0.046162948
168	0xbd24fd83	-0.04028083
169	0x3c0090b0	0.007846996
170	0x3cba613c	0.022751443
171	0x3d849999	0.06474609
172	0x3d62edbd	0.055402506
173	0x3c0ffde0	0.008788556
174	0x3dc4890f	0.09596454
175	0xbdec4f79	-0.11538596
176	0xbda1a450	-0.07892668
177	0xbdca65e1	-0.09882713
178	0xbd85cf65	-0.06533698
179	0xbd809192	-0.06277765
180	0xbd9f2e43	-0.077724956
181	0xbd201b47	-0.039088514
182	0xbcdf1275	-0.02723048
183	0xbbbf24b5	-0.0058332332
184	0xbd57d12d	-0.05268972
185	0xbd1122de	-0.035433643
186	0xbcf0d474	-0.02939818
187	0xbd495c1d	-0.04916011
188	0xbd294dc3	-0.041333925
189	0xbb70ae51	-0.0036724994
190	0xbd0dd0aa	-0.034622826
191	0x3d495cf1	0.0491609
192	0x3d657592	0.056020327
193	0xbbe2d495	-0.0069223144
194	0x3cf723a5	0.030168364
195	0xbd317520	-0.04332459
196	0x3d6e4cbd	0.058178652
197	0xbbdc4c79	-0.0067229834
198	0x3d018303	0.031619083
199	0x3d8a3a9a	0.067494586
200	0x3e0af416	0.13569674
201	0x3df443ad	0.11926971
202	0x3d2bc079	0.041931603
203	0xbab20684	-0.0013582264
204	0x3df3303d	0.11874435
205	0x3ca2abce	0.019857313
206	0x3d609577	0.05483004
207	0xbb6cd237	-0.003613604
208	0x3d490ff6	0.049087487
209	0x3d751f5a	0.059844352
210	0xbd99beae	-0.075070724
211	0xbd3598ed	-0.044335295
212	0xbc4fec23	-0.012690577
213	0xbd351793	-0.044211935
214	0x3d0b01df	0.03393733
215	0xbcef69d7	-0.029225273
216	0xbd17a05e	-0.037018172
217	0xbda5eebf	-0.08102178
218	0x3bf27f9c	0.007400466
219	0x3d18803e	0.037231676
220	0xbd40223b	-0.046907645
221	0x3c9e981f	0.019359646
222	0xbc01fb21	-0.007933409
223	0x3d2f8b7f	0.042857643
224	0x3d527e4f	0.05138999
225	0xbc7e7f70	-0.015533313
226	0xbc96bf10	-0.018401653
227	0xbd55014a	-0.052003182
228	0x3c8e2ff2	0.017356846
229	0xba2cfdb7	-0.0006599086
230	0xbd0a8b72	-0.03382439
231	0x3d0ef070	0.034897268
232	0x3d0046d8	0.031317562
233	0x3d43e313	0.047823977
234	0x3d61cb6a	0.05512563
235	0xbca53a42	-0.020169381
236	0x3c8c0f0b	0.017097017
237	0x3cbfd07c	0.023414843
238	0xbcc7b376	-0.024377566
239	0xbc2eb5b9	-0.010663443
240	0xbdc98335	-0.09839479
241	0xbd63c1d6	-0.05560478
242	0xbd9e4df2	-0.07729711
243	0xbd81de4b	-0.06341227
244	0xbd57845d	-0.052616466
245	0xbca2b9f5	-0.019864062
246	0xbd5a9c47	-0.053371694
247	0xbd0a2921	-0.03373063
248	0xbce95f9d	-0.028487975
249	0xbcc6f78c	-0.024287961
250	0xbdf0c60c	-0.117565244
251	0xbdb0620d	-0.08612452
252	0x3c83368e	0.016017225
253	0xbdc47b28	-0.09593803
254	0xbdaea79b	-0.08528062
255	0xbd404254	-0.046938255

fc2.bias f4 [84]
0	0x3e3dd0a0	0.18536615
1	0x3d8f7467	0.07004624
2	0x3e8b1317	0.27163002
3	0x3e28c008	0.16479504
4	0xbc46b7ae	-0.012128754
5	0x3dcda7c1	0.10041762
6	0x3cfec1fc	0.031098358
7	0xbdc0357d	-0.09385202
8	0x3c822f1c	0.015891604
9	0x3d507650	0.05089408
10	0x3d8df047	0.06930595
11	0xbd8937b5	-0.067000784
12	0x3e2cfc2b	0.1689307
13	0x3d2d5895	0.042320807
14	0x3df19b3d	0.117971875
15	0xbbdfc2ff	-0.0068286653
16	0x3e4e6fe4	0.2015987
17	0xbd5c5307	-0.05379012
18	0x3dc9663a	0.09833951
19	0x3e9ff907	0.3124468
20	0xbd968843	-0.073502086
21	0xbc45a319	-0.012062811
22	0x3d93d422	0.072181955
23	0xbd4d6140	-0.050141573
24	0xbd1d775e	-0.038443916
25	0x3bbd47ac	0.005776366
26	0x3e8721b1	0.26392892
27	0x3df14386	0.11780457
28	0x3e23d8bc	0.16000646
29	0x3e00883b	0.12551968
30	0xbd2c6dcf	-0.04209691
31	0x3dbe5ebd	0.09295414
32	0x3e002ecf	0.12517856
33	0xbd39a7cb	-0.045326035
34	0x3e3d8707	0.1850854
35	0x3d103bfe	0.035213463
36	0x3d9d2574	0.07673159
37	0x3c656b7a	0.014002675
38	0x3ead672b	0.33867773
39	0x3c196106	0.009361511
40	0xbd88a03c	-0.06671187
41	0x3b90ec32	0.004422688
42	0x3e349e73	0.17638569
43	0x3d47e6c4	0.04880406
44	0x3e3e9751	0.1861241
45	0xbe2956e7	-0.16537057
46	0xbd3e3a1b	-0.046442132
47	0xbe043060	-0.12909079
48	0x3e9d572b	0.30730566
49	0x3d3b6bde	0.045757167
50	0x3dd18a89	0.102315016
51	0xbd69e3f8	-0.057102174
52	0x3ce279cd	0.02764597
53	0xbc83869a	-0.016055394
54	0x3d86aafa	0.0657558
55	0x3d03db7d	0.032191742
56	0x3d054dc2	0.03254486
57	0x3e4f5184	0.2024594
58	0x3dfaddd8	0.122493446
59	0x3e2a07aa	0.16604486
60	0x3e098747	0.1343051
61	0xbd260c97	-0.04053935
62	0xbb3cf7b3	-0.0028834164
63	0xbd125d40	-0.03573346
64	0xbcb96370	-0.022630423
65	0x3eb3876c	0.35064256
66	0xbd4174f9	-0.047230694
67	0xbd0f1ede	-0.034941547
68	0xbcd057f4	-0.025432564
69	0xbdc62266	-0.0967453
70	0x3e2952dd	0.16535516
71	0x3d9f866e	0.07789312
72	0xbce83c0d	-0.028348947
73	0xbd6db1e3	-0.058030974
74	0xbda78fcf	-0.08181726
75	0x3d4ab76b	0.049491327
76	0xbcae1408	-0.021249786
77	0x3d259ada	0.04043088
78	0xbd92443e	-0.071419224
79	0x3e0d153f	0.13777636
80	0x3d7e20be	0.062042944
81	0x3d7d2629	0.06180397
82	0x3e9ab753	0.3021799
83	0xbc366e97	-0.011134765

fc2.weight f4 [84, 120]
0	0x3d261df3	0.040555906
1	0x3dd92f32	0.10604705
2	0x3d084cee	0.03327649
3	0x3ca58909	0.020206945
4	0xbd536f5a	-0.051619865
5	0x3db60588	0.08887774
6	0xbce30f11	-0.027717145
7	0xbba2b85f	-0.0049658264
8	0xbd144ed8	-0.036208004
9	0xbe0c0219	-0.13672675
10	0xbda4203e	-0.08013962
11	0x3add6262	0.0016890282
12	0x3d9f27fe	0.077713
13	0x3de2a8bb	0.11067339
14	0xbd9e443d	-0.07727859
15	0xbd7e2e6c	-0.06205599
16	0x3d3bbb0d	0.045832682
17	0xbe08bbd5	-0.13352902
18	0x3ca0a4ad	0.019609774
19	0xbd244ab2	-0.040110298
20	0xbde6448b	-0.11243542
21	0x3d4b442a	0.049625553
22	0xbdebcfdb	-0.11514255
23	0xbd0b58e4	-0.03402032
24	0x3c1ba117	0.009498856
25	0x3d604e10	0.054761946
26	0x3dbaec10	0.091270566
27	0xbc26beed	-0.010177356
28	0xbdbfff71	-0.093748935
29	0xbd3fd787	-0.046836402
30	0xbdc8673b	-0.09785315
31	0xbcb1416d	-0.021637643
32	0xbcfee127	-0.03111322
33	0x3d3af2b1	0.045641605
34	0xbc228fc7	-0.0099219745
35	0x3c9c105a	0.019050766
36	0xbda01dea	-0.07818206
37	0xbca77336	-0.020440679
38	0xbd59d391	-0.05318028
39	0xbd1d1dea	-0.038358606
40	0xbd25a42a	-0.040439762
41	0x3db990b3	0.09060802
42	0xbce75b79	-0.02824186
43	0xbdaf67ad	-0.085646965
44	0xbd279511	-0.040913645
45	0x3c13e9cc	0.0090279095
46	0x3c101bc2	0.0087956805
47	0x3c854e3f	0.016272662
48	0xbcfa9edb	-0.030593326
49	0x3d628509	0.055302653
50	0xbdc39233	-0.0954937
51	0xbd792c98	-0.060833544
52	0xbd813f09	-0.06310851
53	0xbda6579d	-0.0812218
54	0x3d8d0769	0.06886179
55	0x3db95448	0.090492785
56	0x3d565fee	0.05233758
57	0xbd080044	-0.03320338
58	0xbde24661	-0.1104858
59	0xbdc161de	-0.09442495
60	0xbd5238eb	-0.051323812
61	0x3db82062	0.089905515
62	0xbe1b295c	-0.15152496
63	0x3b1ada33	0.0023628592
64	0xbcaebb82	-0.021329645
65	0x3cd5d2c0	0.02610147
66	0xbd77bb33	-0.06048126
67	0x3d4c6422	0.04990018
68	0x3cd18c22	0.025579516
69	0x3d447081	0.047958855
70	0xbd24bc19	-0.040218446
71	0xbdad3f38	-0.08459324
72	0xbd93cb94	-0.07216564
73	0x3df0cb6e	0.11757551
74	0xbd1bc787	-0.03803208
75	0x3dc942dd	0.09827206
76	0x3d34b94a	0.044122018
77	0x3d36c944	0.044625536
78	0x3cb86714	0.022510089
79	0xbba161fb	-0.0049250103
80	0x3bbd07bc	0.0057687443
81	0xbce18fb8	-0.02753435
82	0x3c4107d2	0.01178165
83	0xbc6aed88	-0.014338858
84	0xbb533089	-0.0032224974
85	0xbdb00329	-0.08594353
86	0xbd66a8cc	-0.05631332
87	0xbc9cce94	-0.019141473
88	0xbc9ad3d5	-0.018899838
89	0x3dd4c79b	0.10389634
90	0x3cd5d144	0.026100762
91	0xbd73fce7	-0.05956736
92	0xbc5303b2	-0.012879299
93	0xbd9dee08	-0.077114165
94	0x3e136136	0.14392552
95	0x3cdb9c38	0.02680789
96	0x3dee0433	0.11621895
97	0xbe084640	-0.13308048
98	0x3d7581cb	0.059938233
99	0xbc8b56fa	-0.017009247
100	0xbd32ea0f	-0.043680247
101	0x3d9e928d	0.07742796
102	0xbd54572e	-0.051840954
103	0xbcc6934e	-0.024240162
104	0x3d1b67ce	0.037940793
105	0x3dac1f7e	0.08404444
106	0xbb9c55e7	-0.0047709825
107	0x3d696697	0.056982603
108	0xbdeb0ddf	-0.11477255
109	0x3cbbc0e9	0.022919135
110	0x3cabfe86	0.02099539
111	0x3de0633a	0.10956426
112	0xbd2be236	-0.04196378
113	0x3d68c2f8	0.05682656
114	0x3db5f56b	0.088847004
115	0xbce0e9dd	-0.027455265
116	0xbe196f8a	-0.14983955
117	0x3d11512e	0.03547781
118	0x3d32f502	0.04369069
119	0x3d037902	0.032097824
120	0xbddfac78	-0.10921568
121	0x3ccdf3e7	0.025140716
122	0x3d3331c3	0.04374863
123	0x3b19f84f	0.002349395
124	0xbd07c151	-0.033143345
125	0x3d531b2f	0.051539596
126	0xbdc1b186	-0.09457688
127	0x3cb6653e	0.022265073
128	0x3c6d591a	0.0144865755
129	0xbdb1406c	-0.086548656
130	0x3c3138e1	0.010816784
131	0xbd800a60	-0.06251979
132	0xbd01e3db	-0.03171144
133	0x3d8604a2	0.065438524
134	0x3c4e0593	0.012574571
135	0xbc836ea3	-0.016043967
136	0x3d9e6705	0.07734493
137	0x3d5c6113	0.053803515
138	0x3dcbbb5c	0.09947845
139	0x3ce3d7d0	0.027812868
140	0xbc4bf0a9	-0.012447515
141	0xbcf7c326	-0.030244421
142	0xbcd02632	-0.025408838
143	0xbd59d660	-0.05318296
144	0xbc8f124c	-0.01746478
145	0xbd82f3ac	-0.06394133
146	0x3a3d4e82	0.00072214764
147	0xbdaa5447	-0.08316856
148	0x3b94441e	0.0045247218
149	0x3d90e4ce	0.07074891
150	0x3d2951a3	0.04133762
151	0xbbac4554	-0.005257288
152	0xbdfc673a	-0.123243764
153	0xbd355ee5	-0.04427995
154	0x3d6f21ef	0.05838197
155	0xbd818e2b	-0.063259445
156	0x3d68dcbe	0.05685114
157	0xbd023612	-0.031789847
158	0xbd70175c	-0.058616027
159	0x3da2f295	0.07956425
160	0xbd56eb65	-0.052470583
161	0xbce3294b	-0.027729651
162	0xbd8f33da	-0.06992312
163	0x3c38d6d2	0.011281686
164	0xbd903e77	-0.07043164
165	0x39a80408	0.0003204646
166	0x3ddf5630	0.10905111
167	0xbdbbf59e	-0.09177707
168	0x3d28a696	0.041174494
169	0xbbd12dd7	-0.0063836384
170	0x3caf2769	0.021381097
171	0xbd9c5816	-0.076339886
172	0xbccc114b	-0.02491059
173	0xba8fb261	-0.0010963195
174	0xb9995500	-0.00029245764
175	0x3d803258	0.06259602
176	0xbd51c6a9	-0.051214848
177	0xbd84c35b	-0.064825736
178	0xbd0dd309	-0.034625087
179	0x3db01083	0.08596899
180	0x3b26186d	0.0025344149
181	0xbd15dbd0	-0.036586583
182	0x3d2f20c0	0.042755842
183	0x3d22707d	0.03965806
184	0xbc382fad	-0.011241836
185	0xbd5e2194	-0.05423124
186	0x3b366436	0.0027830726
187	0x3ced0c40	0.028936505
188	0x3cf2d5a1	0.029642882
189	0x3dd92f00	0.10604668
190	0xbda214f4	-0.07914153
191	0x3d27f525	0.041005272
192	0x3da4bb5f	0.08043551
193	0xbd94494a	-0.07240541
194	0xbd1792e0	-0.037005305
195	0xbd5e9d9c	-0.054349527
196	0x3d896ba1	0.06709982
197	0x3d465dfc	0.048429474
198	0x3d349e28	0.044096142
199	0xbd20799c	-0.039178476
200	0x3d984892	0.07435717
201	0x3d4ef261	0.05052412
202	0xbdb59d35	-0.088678755
203	0xbc84404e	-0.016143944
204	0x3b547275	0.0032416855
205	0xbbbb3a39	-0.005713728
206	0xbcf2113c	-0.029549234
207	0xbcc9799a	-0.024594117
208	0xbd7aebff	-0.06126022
209	0x3d84772d	0.064680435
210	0xbd714e8a	-0.05891279
211	0xbd6b42d9	-0.057436798
212	0x3e04a449	0.12953295
213	0x3d91e233	0.07123222
214	0xbb7dad1c	-0.0038707918
215	0xbd071d13	-0.03298671
216	0xbcd110e6	-0.025520753
217	0xbba48117	-0.0050202715
218	0xbd4646ea	-0.048407473
219	0xbabbce7f	-0.0014328508
220	0x3cb2297f	0.021748303
221	0xbabc904e	-0.0014386268
222	0xbda84bba	-0.08217569
223	0xbda9601e	-0.08270286
224	0xbb337427	-0.0027382465
225	0xbc8ee996	-0.017445367
226	0xbd994cf6	-0.07485382
227	0x3ca3976d	0.019969666
228	0xbd5f4500	-0.054509163
229	0x3d288bd8	0.04114899
230	0xbce11397	-0.027475161
231	0xbce94800	-0.028476715
232	0x3b7e017d	0.0038758211
233	0x3dbdf3f4	0.09275046
234	0xbdcfcab1	-0.10146082
235	0xbd9deefa	-0.07711597
236	0xbd009164	-0.031388655
237	0xbcf33089	-0.02968623
238	0x3d54fe7b	0.052000504
239	0x3cefc43c	0.029268377
240	0xbd6f48cd	-0.058419038
241	0x3c8ccb09	0.017186658
242	0xbd0bef5a	-0.03416381
243	0xbda12472	-0.078682795
244	0x3d6ac18d	0.05731349
245	0xbd6285a3	-0.055303227
246	0x3e011903	0.12607197
247	0x3daae78b	0.083449446
248	0x3b179b2a	0.0023133256
249	0xbdd7fbcc	-0.10546073
250	0x3d543b1b	0.05181418
251	0xbca44041	-0.02005017
252	0xbc653908	-0.013990648
253	0x3c93deca	0.01805057
254	0x3d88df74	0.06683245
255	0x3d9f07e7	0.07765179

fc3.bias f4 [10]
0	0xbe71fb23	-0.23630957
1	0xbee6cf68	-0.45080113
2	0x3e557544	0.20845515
3	0x3e71d84f	0.23617671
4	0x3f09a974	0.5377419
5	0xbe2e29b1	-0.17008092
6	0x3c96b8fd	0.018398756
7	0xbe4fda48	-0.20298111
8	0x3ec8d48a	0.39224654
9	0xbe76b9c1	-0.24094297

fc3.weight f4 [10, 84]
0	0xbcfb836c	-0.030702315
1	0x3dbc3517	0.091898136
2	0x3df36035	0.118835844
3	0xbeac3fae	-0.33642334
4	0x3d9ceb8c	0.076621145
5	0xbd8f5cbf	-0.07000112
6	0x3d4c1521	0.049824838
7	0x3e95d938	0.29267287
8	0x3e469b2e	0.19395134
9	0xbda97fb8	-0.082763135
10	0x3db76a15	0.089557804
11	0x3d9835f9	0.074321695
12	0xbe4be445	-0.19911297
13	0x3c97944d	0.018503333
14	0x3c406c45	0.0117445635
15	0x3e7129ad	0.23551054
16	0xbe7cb851	-0.24679686
17	0x3de22f7e	0.11044215
18	0xbdecb882	-0.115586296
19	0xbe5e7001	-0.21722414
20	0xbd08890e	-0.03333383
21	0xbd9a5a52	-0.075367585
22	0x3e007568	0.12544787
23	0xbb38ccd0	-0.002819825
24	0x3d5f7006	0.054550193
25	0xbd8f251d	-0.06989501
26	0x3e04e76b	0.12978904
27	0x3ea36e92	0.31920296
28	0x3e848202	0.25880438
29	0x3d2d5217	0.042314615
30	0xbd8c06f7	-0.06837266
31	0xbdab8db3	-0.08376636
32	0x3e9eb6f5	0.3099896
33	0x3d8176c4	0.06321481
34	0x3dba8a25	0.0910838
35	0x3d863390	0.065528035
36	0x3e2a919a	0.16657105
37	0xbdba25a2	-0.09089209
38	0xbe84b874	-0.25921977
39	0x3d1ac050	0.03778106
40	0x3e64244d	0.22279473
41	0xbc0d579b	-0.008626844
42	0xbc846764	-0.016162582
43	0xbd63b70e	-0.055594496
44	0xbdcf021d	-0.10107825
45	0x3e5dd617	0.216637
46	0xbe0d61be	-0.13806817
47	0xba2879c4	-0.0006426836
48	0xbe3d8cce	-0.18510744
49	0xbde6a48b	-0.11261853
50	0x3deecd1e	0.11660217
51	0xbd1b90e9	-0.037979994
52	0xbe41ca59	-0.18924846
53	0xbdcfde13	-0.10149779
54	0xbd20b474	-0.039234594
55	0xbd7449e3	-0.059640776
56	0x3d7f538b	0.062335532
57	0xbacc085e	-0.0015566458
58	0xbe613166	-0.219915
59	0xbd92254a	-0.071360186
60	0xbe80e5ef	-0.25175425
61	0x3e1e40c7	0.15454398
62	0xbcaaccd7	-0.020849628
63	0xbd8376e3	-0.0641916
64	0x3e5539e4	0.20822865
65	0x3df69822	0.12040736
66	0xbd3ee435	-0.046604354
67	0xbdcafe97	-0.099118404
68	0x3d2760e2	0.04086388
69	0x3d8f366b	0.06992801
70	0x3dbf1039	0.09329266
71	0x3df054c0	0.11734915
72	0xbc2549aa	-0.010088364
73	0x3cd27894	0.025692262
74	0xbd71ab21	-0.059001092
75	0xbcde7848	-0.027156964
76	0xbd00423f	-0.031313177
77	0x3ca5cc69	0.020239072
78	0x3c7862f3	0.01516031
79	0x3e36a56a	0.17836538
80	0xbb1ab3b7	-0.0023605654
81	0xbdd01322	-0.10159899
82	0xbe30cf44	-0.17266566
83	0xbd01633a	-0.03158877
84	0xbdb2af06	-0.08724789
85	0xbdfd3d85	-0.123652495
86	0x3da8e6b9	0.08247132
87	0x3bf8ab95	0.0075888135
88	0x3e043fba	0.12914935
89	0xbc07b7ba	-0.00828355
90	0xbe0761d3	-0.1322091
91	0x3e4513d7	0.1924585
92	0x3e2832ef	0.1642568
93	0x3ea0c832	0.31402737
94	0xbcd37648	-0.025813237
95	0xbcde74e1	-0.027155342
96	0xbd0867e9	-0.03330222
97	0x3e014ec7	0.12627707
98	0xbdcc20d8	-0.09967202
99	0xbe40d760	-0.18832159
100	0x3e16b827	0.14718686
101	0x3d13fa57	0.036127415
102	0xbe500183	-0.20313077
103	0xbe7b63d6	-0.24549803
104	0xbd6315c9	-0.055440698
105	0xbdefa143	-0.1170068
106	0xbc035300	-0.008015394
107	0x3e33f396	0.1757339
108	0xbd3d8ae7	-0.046275046
109	0x3dabc773	0.08387651
110	0xbe9bfe1f	-0.30467317
111	0x3e0c4cd6	0.13701186
112	0x3de27ca9	0.11058933
113	0x3cf53bce	0.029935744
114	0x3d622921	0.055215005
115	0x3cd45798	0.025920674
116	0xbd9f068e	-0.07764922
117	0xbdd8ef11	-0.10592473
118	0xbe01f7fd	-0.12692256
119	0xbd85fedf	-0.065427534
120	0x3e224a1c	0.15848583
121	0x3e8ffbce	0.281218
122	0xbdbe30a1	-0.09286619
123	0x3c284869	0.01027117
124	0xbe138d8f	-0.14409469
125	0x3af7e6c3	0.0018913377
126	0xbde5c4f4	-0.112192065
127	0xbdb2bd89	-0.08727557
128	0xbe8098a0	-0.25116444
129	0x3e326796	0.17422327
130	0xbdee371c	-0.11631605
131	0x3daf3471	0.08554924
132	0xbe0b6070	-0.13611007
133	0x3e78d5a5	0.24300249
134	0x3d199ac6	0.03750112
135	0x3c179103	0.009250882
136	0xbe085a11	-0.13315608
137	0x3c2e45d0	0.010636762
138	0x3eeab751	0.45842984
139	0x3b5bc72c	0.0033535464
140	0x3d011bf9	0.031520817
141	0xbd79e908	-0.06101325
142	0x3d2812cf	0.041033562
143	0xbe5ebf36	-0.21752629
144	0x3cb6d71a	0.022319365
145	0x3d676381	0.05649138
146	0xbd8ed451	-0.0697409
147	0x3dc06d23	0.09395816
148	0xbc7a8af4	-0.015291918
149	0xbec0dfc1	-0.3767071
150	0xbdeaffb3	-0.11474552
151	0xbc57587a	-0.013143653
152	0x3de0e2da	0.109807685
153	0x3bb477a0	0.0055074245
154	0xbe706fc8	-0.23480141
155	0xbe843785	-0.25823608
156	0xbd3e88eb	-0.046517294
157	0x3d9dbd2e	0.07702099
158	0xbd436b4e	-0.047709756
159	0xbd32d817	-0.04366311
160	0xbd6fd88f	-0.058556136
161	0x3da4a218	0.080387294
162	0xbda3832d	-0.07984004
163	0xbb2bd582	-0.002621979
164	0xbd95d243	-0.07315495
165	0xbd83438f	-0.0640937
166	0x3ad36cf2	0.0016130491
167	0xbd667cee	-0.056271486
168	0x3e60158e	0.21883222
169	0x3d135a30	0.03597468
170	0x3d531a9b	0.051539045
171	0xbc10c913	-0.008837002
172	0xbddc5c15	-0.10759751
173	0xbd9e9c77	-0.07744687
174	0xbe1754a1	-0.14778377
175	0xbd65d67b	-0.056112748
176	0xbd816c5c	-0.06319496
177	0xbe1b626a	-0.1517426
178	0xbdbc0cb7	-0.09182113
179	0x3da81b99	0.08208389
180	0xbd010d53	-0.031506848
181	0xbe182ab6	-0.14860043
182	0x3d559830	0.05214709
183	0xbda0cd6e	-0.078516826
184	0xbd78a6d9	-0.060705993
185	0x3c186cf9	0.009303325
186	0x3de33970	0.1109494
187	0x3d77922b	0.06044213
188	0x3d924541	0.071421154
189	0xbd896483	-0.06708624
190	0xbe6997cc	-0.22811812
191	0x3e8e3628	0.27775693
192	0x3c0de023	0.008659395
193	0xbdede816	-0.116165325
194	0x3dea5a52	0.114430085
195	0x3d97aa03	0.07405474
196	0x3e0d798f	0.13815902
197	0xbdfefd28	-0.124506295
198	0xbc2aa69f	-0.010415702
199	0xbdd1efd1	-0.102508195
200	0xbe2427c2	-0.16030791
201	0x3e4d01c9	0.20020212
202	0x3e619a85	0.22031601
203	0xbda0fc77	-0.07860654
204	0x3b8f565b	0.004374308
205	0xbd76e8c3	-0.060280573
206	0x3e0ca593	0.13735037
207	0x3d909bf8	0.07060999
208	0x3e52d707	0.20589839
209	0xbda5dea2	-0.080991045
210	0x3dfc4c58	0.12319249
211	0xbd37e5ef	-0.044897016
212	0xbd9ceb58	-0.07662076
213	0xbd9cfb6d	-0.07665143
214	0xbd9be257	-0.0761153
215	0x3de74fd5	0.112945236
216	0x3e85897a	0.2608145
217	0xbdf3f7f3	-0.11912527
218	0xbe8b82c9	-0.2724822
219	0x3d3da5ef	0.046300825
220	0x3e080710	0.13283944
221	0x3d6c11c0	0.057634115
222	0xbe31eece	-0.17376253
223	0x3dd970e4	0.10617235
224	0xbcdb8aa0	-0.0267995
225	0x3e81bd0f	0.25339553
226	0x3c129ffe	0.008949278
227	0x3e83794a	0.25678474
228	0x3de36a69	0.111042805
229	0xbd9f5b35	-0.07781068
230	0x3e3c7151	0.18402602
231	0xbc70412c	-0.014663976
232	0x3e110478	0.14161861
233	0x3d7fb2c6	0.06242635
234	0xbc40c3d4	-0.011765439
235	0xbd63a8ce	-0.055580907
236	0xbdd0d6d3	-0.101972245
237	0x3d336484	0.04379703
238	0x3d9831a2	0.07431342
239	0x3e4f5178	0.20245922
240	0xbdb744c3	-0.08948662
241	0x3dd22502	0.10260965
242	0xbdd63312	-0.1045896
243	0x3d0d8fe0	0.034561038
244	0x3d171c72	0.036892362
245	0x3dcecc2a	0.10097535
246	0x3d9056af	0.070477836
247	0xbe0cab47	-0.13737212
248	0x3d44f369	0.048083697
249	0x3e097d53	0.13426714
250	0x3e21a555	0.15785725
251	0x3cd053dc	0.025430612
252	0xbdbd4d18	-0.0924322
253	0xbe18c9ac	-0.14920682
254	0xbe3f0589	-0.18654455
255	0x3e0fa02b	0.14025943
